…
ess they are explicitly allowlisted by the user via `torch.serialization.add_safe_globals`. We recommend you start setting `weights_only=True` for any use case where you don't have full control of the loaded file. Please open an issue on GitHub for any issues related to this experimental feature.
  ckpt = torch.load(weights, map_location=device)  # load checkpoint
wandb: Install Weights & Biases for YOLOR logging with 'pip install wandb' (recommended)

                 from  n    params  module                                  arguments                     
  0                -1  1      1160  models.common.Conv                      [3, 40, 3, 1]                 
  1                -1  1     28960  models.common.Conv                      [40, 80, 3, 2]                
  2                -1  1     57760  models.common.Conv                      [80, 80, 3, 1]                
  3                -1  1    115520  models.common.Conv                      [80, 160, 3, 2]               
  4                -1  1     10368  models.common.Conv                      [160, 64, 1, 1]               
  5                -2  1     10368  models.common.Conv                      [160, 64, 1, 1]               
  6                -1  1     36992  models.common.Conv                      [64, 64, 3, 1]                
  7                -1  1     36992  models.common.Conv                      [64, 64, 3, 1]                
  8                -1  1     36992  models.common.Conv                      [64, 64, 3, 1]                
  9                -1  1     36992  models.common.Conv                      [64, 64, 3, 1]                
 10                -1  1     36992  models.common.Conv                      [64, 64, 3, 1]                
 11                -1  1     36992  models.common.Conv                      [64, 64, 3, 1]                
 12[-1, -3, -5, -7, -8]  1         0  models.common.Concat                    [1]                           
 13                -1  1    103040  models.common.Conv                      [320, 320, 1, 1]              
 14                -1  1         0  models.common.MP                        []                            
 15                -1  1     51520  models.common.Conv                      [320, 160, 1, 1]              
 16                -3  1     51520  models.common.Conv                      [320, 160, 1, 1]              
 17                -1  1    230720  models.common.Conv                      [160, 160, 3, 2]              
 18          [-1, -3]  1         0  models.common.Concat                    [1]                           
 19                -1  1     41216  models.common.Conv                      [320, 128, 1, 1]              
 20                -2  1     41216  models.common.Conv                      [320, 128, 1, 1]              
 21                -1  1    147712  models.common.Conv                      [128, 128, 3, 1]              
 22                -1  1    147712  models.common.Conv                      [128, 128, 3, 1]              
 23                -1  1    147712  models.common.Conv                      [128, 128, 3, 1]              
 24                -1  1    147712  models.common.Conv                      [128, 128, 3, 1]              
 25                -1  1    147712  models.common.Conv                      [128, 128, 3, 1]              
 26                -1  1    147712  models.common.Conv                      [128, 128, 3, 1]              
 27[-1, -3, -5, -7, -8]  1         0  models.common.Concat                    [1]                           
 28                -1  1    410880  models.common.Conv                      [640, 640, 1, 1]              
 29                -1  1         0  models.common.MP                        []                            
 30                -1  1    205440  models.common.Conv                      [640, 320, 1, 1]              
 31                -3  1    205440  models.common.Conv                      [640, 320, 1, 1]              
 32                -1  1    922240  models.common.Conv                      [320, 320, 3, 2]              
 33          [-1, -3]  1         0  models.common.Concat                    [1]                           
 34                -1  1    164352  models.common.Conv                      [640, 256, 1, 1]              
 35                -2  1    164352  models.common.Conv                      [640, 256, 1, 1]              
 36                -1  1    590336  models.common.Conv                      [256, 256, 3, 1]              
 37                -1  1    590336  models.common.Conv                      [256, 256, 3, 1]              
 38                -1  1    590336  models.common.Conv                      [256, 256, 3, 1]              
 39                -1  1    590336  models.common.Conv                      [256, 256, 3, 1]              
 40                -1  1    590336  models.common.Conv                      [256, 256, 3, 1]              
 41                -1  1    590336  models.common.Conv                      [256, 256, 3, 1]              
 42[-1, -3, -5, -7, -8]  1         0  models.common.Concat                    [1]                           
 43                -1  1   1640960  models.common.Conv                      [1280, 1280, 1, 1]            
 44                -1  1         0  models.common.MP                        []                            
 45                -1  1    820480  models.common.Conv                      [1280, 640, 1, 1]             
 46                -3  1    820480  models.common.Conv                      [1280, 640, 1, 1]             
 47                -1  1   3687680  models.common.Conv                      [640, 640, 3, 2]              
 48          [-1, -3]  1         0  models.common.Concat                    [1]                           
 49                -1  1    328192  models.common.Conv                      [1280, 256, 1, 1]             
 50                -2  1    328192  models.common.Conv                      [1280, 256, 1, 1]             
 51                -1  1    590336  models.common.Conv                      [256, 256, 3, 1]              
 52                -1  1    590336  models.common.Conv                      [256, 256, 3, 1]              
 53                -1  1    590336  models.common.Conv                      [256, 256, 3, 1]              
 54                -1  1    590336  models.common.Conv                      [256, 256, 3, 1]              
 55                -1  1    590336  models.common.Conv                      [256, 256, 3, 1]              
 56                -1  1    590336  models.common.Conv                      [256, 256, 3, 1]              
 57[-1, -3, -5, -7, -8]  1         0  models.common.Concat                    [1]                           
 58                -1  1   1640960  models.common.Conv                      [1280, 1280, 1, 1]            
 59                -1  1  11887360  models.common.SPPCSPC                   [1280, 640, 1]                
 60                -1  1    205440  models.common.Conv                      [640, 320, 1, 1]              
 61                -1  1         0  torch.nn.modules.upsampling.Upsample    [None, 2, 'nearest']          
 62                43  1    410240  models.common.Conv                      [1280, 320, 1, 1]             
 63          [-1, -2]  1         0  models.common.Concat                    [1]                           
 64                -1  1    164352  models.common.Conv                      [640, 256, 1, 1]              
 65                -2  1    164352  models.common.Conv                      [640, 256, 1, 1]              
 66                -1  1    590336  models.common.Conv                      [256, 256, 3, 1]              
 67                -1  1    590336  models.common.Conv                      [256, 256, 3, 1]              
 68                -1  1    590336  models.common.Conv                      [256, 256, 3, 1]              
 69                -1  1    590336  models.common.Conv                      [256, 256, 3, 1]              
 70                -1  1    590336  models.common.Conv                      [256, 256, 3, 1]              
 71                -1  1    590336  models.common.Conv                      [256, 256, 3, 1]              
 72[-1, -3, -5, -7, -8]  1         0  models.common.Concat                    [1]                           
 73                -1  1    410240  models.common.Conv                      [1280, 320, 1, 1]             
 74                -1  1     51520  models.common.Conv                      [320, 160, 1, 1]              
 75                -1  1         0  torch.nn.modules.upsampling.Upsample    [None, 2, 'nearest']          
 76                28  1    102720  models.common.Conv                      [640, 160, 1, 1]              
 77          [-1, -2]  1         0  models.common.Concat                    [1]                           
 78                -1  1     41216  models.common.Conv                      [320, 128, 1, 1]              
 79                -2  1     41216  models.common.Conv                      [320, 128, 1, 1]              
 80                -1  1    147712  models.common.Conv                      [128, 128, 3, 1]              
 81                -1  1    147712  models.common.Conv                      [128, 128, 3, 1]              
 82                -1  1    147712  models.common.Conv                      [128, 128, 3, 1]              
 83                -1  1    147712  models.common.Conv                      [128, 128, 3, 1]              
 84                -1  1    147712  models.common.Conv                      [128, 128, 3, 1]              
 85                -1  1    147712  models.common.Conv                      [128, 128, 3, 1]              
 86[-1, -3, -5, -7, -8]  1         0  models.common.Concat                    [1]                           
 87                -1  1    102720  models.common.Conv                      [640, 160, 1, 1]              
 88                -1  1         0  models.common.MP                        []                            
 89                -1  1     25920  models.common.Conv                      [160, 160, 1, 1]              
 90                -3  1     25920  models.common.Conv                      [160, 160, 1, 1]              
 91                -1  1    230720  models.common.Conv                      [160, 160, 3, 2]              
 92      [-1, -3, 73]  1         0  models.common.Concat                    [1]                           
 93                -1  1    164352  models.common.Conv                      [640, 256, 1, 1]              
 94                -2  1    164352  models.common.Conv                      [640, 256, 1, 1]              
 95                -1  1    590336  models.common.Conv                      [256, 256, 3, 1]              
 96                -1  1    590336  models.common.Conv                      [256, 256, 3, 1]              
 97                -1  1    590336  models.common.Conv                      [256, 256, 3, 1]              
 98                -1  1    590336  models.common.Conv                      [256, 256, 3, 1]              
 99                -1  1    590336  models.common.Conv                      [256, 256, 3, 1]              
100                -1  1    590336  models.common.Conv                      [256, 256, 3, 1]              
101[-1, -3, -5, -7, -8]  1         0  models.common.Concat                    [1]                           
102                -1  1    410240  models.common.Conv                      [1280, 320, 1, 1]             
103                -1  1         0  models.common.MP                        []                            
104                -1  1    103040  models.common.Conv                      [320, 320, 1, 1]              
105                -3  1    103040  models.common.Conv                      [320, 320, 1, 1]              
106                -1  1    922240  models.common.Conv                      [320, 320, 3, 2]              
107      [-1, -3, 59]  1         0  models.common.Concat                    [1]                           
108                -1  1    656384  models.common.Conv                      [1280, 512, 1, 1]             
109                -2  1    656384  models.common.Conv                      [1280, 512, 1, 1]             
110                -1  1   2360320  models.common.Conv                      [512, 512, 3, 1]              
111                -1  1   2360320  models.common.Conv                      [512, 512, 3, 1]              
112                -1  1   2360320  models.common.Conv                      [512, 512, 3, 1]              
113                -1  1   2360320  models.common.Conv                      [512, 512, 3, 1]              
114                -1  1   2360320  models.common.Conv                      [512, 512, 3, 1]              
115                -1  1   2360320  models.common.Conv                      [512, 512, 3, 1]              
116[-1, -3, -5, -7, -8]  1         0  models.common.Concat                    [1]                           
117                -1  1   1639680  models.common.Conv                      [2560, 640, 1, 1]             
118                87  1    461440  models.common.Conv                      [160, 320, 3, 1]              
119               102  1   1844480  models.common.Conv                      [320, 640, 3, 1]              
120               117  1   7375360  models.common.Conv                      [640, 1280, 3, 1]             
121   [118, 119, 120]  1     76358  models.yolo.IDetect                     [6, [[12, 16, 19, 36, 40, 28], [36, 75, 76, 55, 72, 146], [142, 110, 192, 243, 459, 401]], [320, 640, 1280]]
C:\Users\mcfly\miniconda3\envs\py39desperate\lib\site-packages\torch\functional.py:513: UserWarning: torch.meshgrid: in an upcoming release, it will be required to pass the indexing argument. (Triggered internally at C:\cb\pytorch_1000000000000\work\aten\src\ATen\native\TensorShape.cpp:3610.)
…
